ST Edge AI Core v4.0.1-20581 7ed50de05
Created date          : 2026-07-15 20:13:51
Parameters            : validate --model C:\Users\zzc\Desktop\model\gesture_cnn_combined_int8.tflite --batch-size 10 --mode host --optimization time --name network --verbosity 1 --c-api st-ai --target stm32h7 --memory-pool E:\base\finaltest\.ai\run\run-1\.ai\mempools.json --save-csv --workspace E:\base\finaltest\.ai\run\run-1\.ai\st_ai_ws --output E:\base\finaltest\.ai\run\run-1\.ai\st_ai_output

Exec/report summary (validate)
-----------------------------------------------------------------------------------------------------
model file         :   C:\Users\zzc\Desktop\model\gesture_cnn_combined_int8.tflite                   
type               :   tflite                                                                        
c_name             :   network                                                                       
compression        :   lossless                                                                      
options            :   allocate-inputs, allocate-outputs, multi-heaps, use-lite-runtime, use-st-ai   
optimization       :   time                                                                          
target/series      :   stm32h7                                                                       
memory pool        :   E:\base\finaltest\.ai\run\run-1\.ai\mempools.json                             
workspace dir      :   E:\base\finaltest\.ai\run\run-1\.ai\st_ai_ws                                  
output dir         :   E:\base\finaltest\.ai\run\run-1\.ai\st_ai_output                              
model_fmt          :   ss/sa per channel                                                             
model_name         :   gesture_cnn_combined_int8                                                     
model_hash         :   0x5f3c978ced3b7aff0142c989c3b31656                                            
params #           :   142,333 items (139.41 KiB)                                                    
-----------------------------------------------------------------------------------------------------
input 1/1          :   'serving_default_input_layer0', f32(1x64x64x3), 48.00 KBytes, activations     
output 1/1         :   'conversion_14', f32(1x5), 20 Bytes, activations                              
macc               :   7,332,386                                                                     
weights (ro)       :   142,756 B (139.41 KiB) (1 segment) / -426,576(-74.9%) vs float model          
activations (rw)   :   85,056 B (83.06 KiB) (1 segment) *                                            
ram (total)        :   85,056 B (83.06 KiB) = 85,056 + 0 + 0                                         
-----------------------------------------------------------------------------------------------------
(*) 'input'/'output' buffers are allocated in the activations buffer
 
 Memory-pools summary (activations/ domain)
 --------------- -------- -------------------------- --------- 
 name            id       used                       buffer#   
 --------------- -------- -------------------------- --------- 
 DTCMRAM         0        83.06 KiB (64.9%)          20        
 RAM             unused   -                          0         
 RAM_D2          unused   -                          0         
 RAM_D3          unused   -                          0         
 ITCMRAM         unused   -                          0         
 weights_array   5        139.41 KiB (14275600.0%)   10        
 --------------- -------- -------------------------- --------- 
 Warning: ['RAM', 'RAM_D2', 'RAM_D3', 'ITCMRAM'] memory pool s not used

Model name - gesture_cnn_combined_int8
------ ------------------------------------------------ ---------------------- ----------------- ----------- -------------------------------- --- --------------- ------------------- -------------------- 
m_id   layer (type,original)                            oshape                 param/size               macc                     connected to   | c_size          c_macc              c_type               
------ ------------------------------------------------ ---------------------- ----------------- ----------- -------------------------------- --- --------------- ------------------- -------------------- 
0      serving_default_input_layer0 (Input, )           [b:1,h:64,w:64,c:3]                                                                     |                 +24,576(+100.0%)    Conversion_[0]       
       conversion_0 (Conversion, QUANTIZE)              [b:1,h:64,w:64,c:3]                           24,576     serving_default_input_layer0   |                 -24,576(-100.0%)    
------ ------------------------------------------------ ---------------------- ----------------- ----------- -------------------------------- --- --------------- ------------------- -------------------- 
1      conv2d_1 (Conv2D, CONV_2D)                       [b:1,h:64,w:64,c:16]   448/496             1,769,488                     conversion_0   |                                     Conv2D_[1]           
       nl_1_nl (Nonlinearity, CONV_2D)                  [b:1,h:64,w:64,c:16]                          65,536                         conv2d_1   |                 -65,536(-100.0%)    
------ ------------------------------------------------ ---------------------- ----------------- ----------- -------------------------------- --- --------------- ------------------- -------------------- 
2      pool_2 (Pool, MAX_POOL_2D)                       [b:1,h:32,w:32,c:16]                          65,536                          nl_1_nl   |                                     Pool_[2]             
------ ------------------------------------------------ ---------------------- ----------------- ----------- -------------------------------- --- --------------- ------------------- -------------------- 
3      conv2d_3 (Conv2D, CONV_2D)                       [b:1,h:32,w:32,c:24]   3,480/3,552         3,538,968                           pool_2   |                                     Pad_/Conv2D_[3, 4]   
       nl_3_nl (Nonlinearity, CONV_2D)                  [b:1,h:32,w:32,c:24]                          24,576                         conv2d_3   |                 -24,576(-100.0%)    
------ ------------------------------------------------ ---------------------- ----------------- ----------- -------------------------------- --- --------------- ------------------- -------------------- 
4      pool_4 (Pool, MAX_POOL_2D)                       [b:1,h:16,w:16,c:24]                          24,576                          nl_3_nl   |                                     Pool_[5]             
------ ------------------------------------------------ ---------------------- ----------------- ----------- -------------------------------- --- --------------- ------------------- -------------------- 
5      conv2d_5 (Conv2D, CONV_2D)                       [b:1,h:16,w:16,c:32]   6,944/7,040         1,769,504                           pool_4   |                                     Pad_/Conv2D_[6, 7]   
       nl_5_nl (Nonlinearity, CONV_2D)                  [b:1,h:16,w:16,c:32]                           8,192                         conv2d_5   |                 -8,192(-100.0%)     
------ ------------------------------------------------ ---------------------- ----------------- ----------- -------------------------------- --- --------------- ------------------- -------------------- 
6      pool_6 (Pool, MAX_POOL_2D)                       [b:1,h:8,w:8,c:32]                             8,192                          nl_5_nl   |                                     Pool_[8]             
------ ------------------------------------------------ ---------------------- ----------------- ----------- -------------------------------- --- --------------- ------------------- -------------------- 
10     reshape_10 (Reshape, RESHAPE)                    [b:1,c:2048]                                                                   pool_6   |                                     
------ ------------------------------------------------ ---------------------- ----------------- ----------- -------------------------------- --- --------------- ------------------- -------------------- 
11     sequential_1_dense_1_MatMul (Placeholder, )      [b:64,c:2048]          131,072/131,072                                                  | +256(+0.2%)     +131,136(+100.0%)   Dense_[9]            
       sequential_1_dense.._1_BiasAdd (Placeholder, )   [b:64]                 64/256                                                           | -256(-100.0%)                       
       gemm_11 (Gemm, FULLY_CONNECTED)                  [b:1,c:64]                                   131,136                       reshape_10   |                 -131,136(-100.0%)   
                                                                                                                  sequential_1_dense_1_MatMul   | 
                                                                                                               sequential_1_dense.._1_BiasAdd   | 
       nl_11_nl (Nonlinearity, FULLY_CONNECTED)         [b:1,c:64]                                        64                          gemm_11   |                 -64(-100.0%)        
------ ------------------------------------------------ ---------------------- ----------------- ----------- -------------------------------- --- --------------- ------------------- -------------------- 
12     sequential_1_dense_1_2_MatMul (Placeholder, )    [b:5,c:64]             320/320                                                          | +20(+6.2%)      +325(+100.0%)       Dense_[10]           
       sequential_1_dense_1_2_BiasAdd (Placeholder, )   [b:5]                  5/20                                                             | -20(-100.0%)                        
       gemm_12 (Gemm, FULLY_CONNECTED)                  [b:1,c:5]                                        325                         nl_11_nl   |                 -325(-100.0%)       
                                                                                                                sequential_1_dense_1_2_MatMul   | 
                                                                                                               sequential_1_dense_1_2_BiasAdd   | 
------ ------------------------------------------------ ---------------------- ----------------- ----------- -------------------------------- --- --------------- ------------------- -------------------- 
13     nl_13 (Nonlinearity, SOFTMAX)                    [b:1,c:5]                                         75                          gemm_12   |                                     Nonlinearity_[11]    
------ ------------------------------------------------ ---------------------- ----------------- ----------- -------------------------------- --- --------------- ------------------- -------------------- 
14     conversion_14 (Conversion, DEQUANTIZE)           [b:1,c:5]                                         10                            nl_13   |                                     Conversion_[o][12]   
------ ------------------------------------------------ ---------------------- ----------------- ----------- -------------------------------- --- --------------- ------------------- -------------------- 
model/c-model: macc=7,430,754/7,332,386 -98,368(-1.3%) weights=142,756/142,756  activations=--/85,056 io=--/0



Generated C-graph summary
------------------------------------------------------------------------------------------------------------------------
model name            : gesture_cnn_combined_int8
c-name                : network
c-node #              : 13
c-array #             : 30
activations size      : 85056 (1 segment)
weights size          : 142756 (1 segment)
macc                  : 7332386
inputs                : ['serving_default_input_layer0_output']
outputs               : ['conversion_14_output']

C-Arrays (30)
------ ------------------------------------- --------------- --------------------- ----------- --------- 
c_id   name (*_array)                        item/size       domain/mem-pool       c-type      comment   
------ ------------------------------------- --------------- --------------------- ----------- --------- 
0      conv2d_1_bias                         16/64           weights/weights       const s32             
1      conv2d_1_output                       65536/65536     activations/DTCMRAM   s8                    
2      conv2d_1_scratch0                     1196/1196       activations/DTCMRAM   s8                    
3      conv2d_1_weights                      432/432         weights/weights       const s8              
4      conv2d_3_bias                         24/96           weights/weights       const s32             
5      conv2d_3_output                       24576/24576     activations/DTCMRAM   s8                    
6      conv2d_3_pad_before_output            18496/18496     activations/DTCMRAM   s8                    
7      conv2d_3_scratch0                     6032/6032       activations/DTCMRAM   s8                    
8      conv2d_3_weights                      3456/3456       weights/weights       const s8              
9      conv2d_5_bias                         32/128          weights/weights       const s32             
10     conv2d_5_output                       8192/8192       activations/DTCMRAM   s8                    
11     conv2d_5_pad_before_output            7776/7776       activations/DTCMRAM   s8                    
12     conv2d_5_scratch0                     6432/6432       activations/DTCMRAM   s8                    
13     conv2d_5_weights                      6912/6912       weights/weights       const s8              
14     conversion_0_output                   12288/12289     activations/DTCMRAM   s8                    
15     conversion_14_output                  5/20            activations/DTCMRAM   float       /output   
16     gemm_11_bias                          64/256          weights/weights       const s32             
17     gemm_11_output                        64/64           activations/DTCMRAM   s8                    
18     gemm_11_scratch0                      2368/4736       activations/DTCMRAM   s16                   
19     gemm_11_weights                       131072/131072   weights/weights       const s8              
20     gemm_12_bias                          5/20            weights/weights       const s32             
21     gemm_12_output                        5/5             activations/DTCMRAM   s8                    
22     gemm_12_scratch0                      89/178          activations/DTCMRAM   s16                   
23     gemm_12_weights                       320/320         weights/weights       const s8              
24     nl_13_output                          5/5             activations/DTCMRAM   s8                    
25     nl_13_scratch0                        62/248          activations/DTCMRAM   s32                   
26     pool_2_output                         16384/16384     activations/DTCMRAM   s8                    
27     pool_4_output                         6144/6144       activations/DTCMRAM   s8                    
28     pool_6_output                         2048/2048       activations/DTCMRAM   s8                    
29     serving_default_input_layer0_output   12288/49152     activations/DTCMRAM   float       /input    
------ ------------------------------------- --------------- --------------------- ----------- --------- 

C-Layers (13)
------ --------------------- ---- --------------- --------- -------- ---------------------------------------- ----------------------- 
c_id   name (*_layer)        id   layer_type      macc      rom      tensors                                  shape (array id)        
------ --------------------- ---- --------------- --------- -------- ---------------------------------------- ----------------------- 
0      conversion_0          0    Conversion      24576     0        I: serving_default_input_layer0_output   f32(1x64x64x3) (29)     
                                                                     O: conversion_0_output                   int8(1x64x64x3) (14)    
------ --------------------- ---- --------------- --------- -------- ---------------------------------------- ----------------------- 
1      conv2d_1              1    Conv2D          1769488   496      I: conversion_0_output                   int8(1x64x64x3) (14)    
                                                                     S: conv2d_1_scratch0                                             
                                                                     W: conv2d_1_weights                      int8(16x3x3x3) (3)      
                                                                     W: conv2d_1_bias                         int32(16) (0)           
                                                                     O: conv2d_1_output                       int8(1x64x64x16) (1)    
------ --------------------- ---- --------------- --------- -------- ---------------------------------------- ----------------------- 
2      pool_2                2    Pool            65536     0        I: conv2d_1_output                       int8(1x64x64x16) (1)    
                                                                     O: pool_2_output                         int8(1x32x32x16) (26)   
------ --------------------- ---- --------------- --------- -------- ---------------------------------------- ----------------------- 
3      conv2d_3_pad_before   3    Pad             0         0        I: pool_2_output                         int8(1x32x32x16) (26)   
                                                                     O: conv2d_3_pad_before_output            int8(1x34x34x16) (6)    
------ --------------------- ---- --------------- --------- -------- ---------------------------------------- ----------------------- 
4      conv2d_3              3    Conv2D          3538968   3552     I: conv2d_3_pad_before_output            int8(1x34x34x16) (6)    
                                                                     S: conv2d_3_scratch0                                             
                                                                     W: conv2d_3_weights                      int8(24x3x3x16) (8)     
                                                                     W: conv2d_3_bias                         int32(24) (4)           
                                                                     O: conv2d_3_output                       int8(1x32x32x24) (5)    
------ --------------------- ---- --------------- --------- -------- ---------------------------------------- ----------------------- 
5      pool_4                4    Pool            24576     0        I: conv2d_3_output                       int8(1x32x32x24) (5)    
                                                                     O: pool_4_output                         int8(1x16x16x24) (27)   
------ --------------------- ---- --------------- --------- -------- ---------------------------------------- ----------------------- 
6      conv2d_5_pad_before   5    Pad             0         0        I: pool_4_output                         int8(1x16x16x24) (27)   
                                                                     O: conv2d_5_pad_before_output            int8(1x18x18x24) (11)   
------ --------------------- ---- --------------- --------- -------- ---------------------------------------- ----------------------- 
7      conv2d_5              5    Conv2D          1769504   7040     I: conv2d_5_pad_before_output            int8(1x18x18x24) (11)   
                                                                     S: conv2d_5_scratch0                                             
                                                                     W: conv2d_5_weights                      int8(32x3x3x24) (13)    
                                                                     W: conv2d_5_bias                         int32(32) (9)           
                                                                     O: conv2d_5_output                       int8(1x16x16x32) (10)   
------ --------------------- ---- --------------- --------- -------- ---------------------------------------- ----------------------- 
8      pool_6                6    Pool            8192      0        I: conv2d_5_output                       int8(1x16x16x32) (10)   
                                                                     O: pool_6_output                         int8(1x8x8x32) (28)     
------ --------------------- ---- --------------- --------- -------- ---------------------------------------- ----------------------- 
9      gemm_11               11   Dense           131136    131328   I: pool_6_output                         int8(1x8x8x32) (28)     
                                                                     S: gemm_11_scratch0                                              
                                                                     W: gemm_11_weights                       int8(64x2048) (19)      
                                                                     W: gemm_11_bias                          int32(64) (16)          
                                                                     O: gemm_11_output                        int8(1x64) (17)         
------ --------------------- ---- --------------- --------- -------- ---------------------------------------- ----------------------- 
10     gemm_12               12   Dense           325       340      I: gemm_11_output                        int8(1x64) (17)         
                                                                     S: gemm_12_scratch0                                              
                                                                     W: gemm_12_weights                       int8(5x64) (23)         
                                                                     W: gemm_12_bias                          int32(5) (20)           
                                                                     O: gemm_12_output                        int8(1x5) (21)          
------ --------------------- ---- --------------- --------- -------- ---------------------------------------- ----------------------- 
11     nl_13                 13   Nonlinearity    75        0        I: gemm_12_output                        int8(1x5) (21)          
                                                                     S: nl_13_scratch0                                                
                                                                     O: nl_13_output                          int8(1x5) (24)          
------ --------------------- ---- --------------- --------- -------- ---------------------------------------- ----------------------- 
12     conversion_14         14   Conversion      10        0        I: nl_13_output                          int8(1x5) (24)          
                                                                     O: conversion_14_output                  f32(1x5) (15)           
------ --------------------- ---- --------------- --------- -------- ---------------------------------------- ----------------------- 
 
Setting validation data...
 generating random data, size=10, seed=42, range=(0, 1)
   I[1]: (10, 64, 64, 3)/float32, min/max=[0.000006, 0.999992], mean/std=[0.499518, 0.288492]
 no output/reference samples are provided
 
Running the ST.AI c-model (AI RUNNER)...(name=network, mode=HOST)

 DLL Driver v2.0 - Direct Python binding (E:\base\finaltest\.ai\run\run-1\.ai\st_ai_ws\inspector_network\workspace\lib\libai_network.dll) ['network']
  
  Summary 'network' - ['network']
  --------------------------------------------------------------------------------------------
  I[1/1] 'input_1'    :   f32[1,64,64,3], 49152 Bytes, in activations buffer                  
  O[1/1] 'output_1'   :   f32[1,5], 20 Bytes, in activations buffer                           
  n_nodes             :   13                                                                  
  activations         :   85056                                                               
  weights             :   142756                                                              
  macc                :   7332386                                                             
  hash                :   0x5f3c978ced3b7aff0142c989c3b31656                                  
  compile_datetime    :   Jul 15 2026 20:13:03                                                
  --------------------------------------------------------------------------------------------
  protocol            :   DLL Driver v2.0 - Direct Python binding                             
  tools               :   ST.AI (st-ai api) v4.0.1                                            
  runtime lib         :   v12.0.1                                                             
  capabilities        :   IO_ONLY, PER_LAYER, PER_LAYER_WITH_DATA                             
  device.desc         :   AMD64, AMD64 Family 25 Model 97 Stepping 2, AuthenticAMD, Windows   
  --------------------------------------------------------------------------------------------
 
 NOTE: The duration and execution time per layer are just indications. They depend on the host machine's workload.

  
  ST.AI Profiling results v2.0 - "network"
  ------------------------------------------------------------
  nb sample(s)   :   10                                       
  duration       :   2.982 ms by sample (2.601/4.889/0.644)   
  macc           :   7332386                                  
  ------------------------------------------------------------
  
  Statistic per tensor
  -----------------------------------------------------------------------------------
  tensor   #    type[shape]:size           min     max     mean      std  name       
  -----------------------------------------------------------------------------------
  I.0      10   f32[1,64,64,3]:49152     0.000   1.000    0.500    0.288  input_1    
  O.0      10   f32[1,5]:20              0.000   0.926    0.200    0.243  output_1   
  -----------------------------------------------------------------------------------
 
Saving validation data...
 output directory: E:\base\finaltest\.ai\run\run-1\.ai\st_ai_output
 creating E:\base\finaltest\.ai\run\run-1\.ai\st_ai_output\network_val_io.npz
 m_outputs_1: (10, 5)/float32, min/max=[0.000000, 0.925781], mean/std=[0.200000, 0.242565], conversion_14
 c_outputs_1: (10, 1, 1, 5)/float32, min/max=[0.000000, 0.925781], mean/std=[0.200000, 0.242565], conversion_14

 
Computing the metrics...

 Cross accuracy report #1 (reference vs C-model)
 ----------------------------------------------------------------------------------------------------
 notes: - the output of the reference model is used as ground truth/reference value
        - 10 samples (5 items per sample)

  acc=100.00% rmse=0.000000000 mae=0.000000000 l2r=0.000000000 mean=0.000000 std=0.000000 snr=inf nse=1.000000 cos=1.000000 
 
  Confusion matrix (axis=-1) - 5 classes (10 samples)
  ---------------------------------
  C0        0    .    .    .    .  
  C1        .    4    .    .    .  
  C2        .    .    0    .    .  
  C3        .    .    .    2    .  
  C4        .    .    .    .    4  


Number of operations per c-layer
------- ------ ----------------------------- ----------- ------------- 
c_id    m_id   name (type)                           #op          type 
------- ------ ----------------------------- ----------- ------------- 
0       0      conversion_0 (Conversion)          24,576   smul_f32_s8 
1       1      conv2d_1 (Conv2D)               1,769,488    smul_s8_s8 
2       2      pool_2 (Pool)                      65,536    smul_s8_s8 
3       3      conv2d_3_pad_before (Pad)               0    smul_s8_s8 
4       3      conv2d_3 (Conv2D)               3,538,968    smul_s8_s8 
5       4      pool_4 (Pool)                      24,576    smul_s8_s8 
6       5      conv2d_5_pad_before (Pad)               0    smul_s8_s8 
7       5      conv2d_5 (Conv2D)               1,769,504    smul_s8_s8 
8       6      pool_6 (Pool)                       8,192    smul_s8_s8 
9       11     gemm_11 (Dense)                   131,136    smul_s8_s8 
10      12     gemm_12 (Dense)                       325    smul_s8_s8 
11      13     nl_13 (Nonlinearity)                   75      op_s8_s8 
12      14     conversion_14 (Conversion)             10   smul_s8_f32 
------- ------ ----------------------------- ----------- ------------- 
total                                          7,332,386 

Number of operation types
---------------- ----------- ----------- 
operation type             #           % 
---------------- ----------- ----------- 
smul_f32_s8           24,576        0.3% 
smul_s8_s8         7,307,725       99.7% 
op_s8_s8                  75        0.0% 
smul_s8_f32               10        0.0% 

Complexity report (model)
------ ------------------------------- ------------------------- ------------------------- -------- -------- ------------------ 
m_id   name                            c_macc                    c_rom                     c_id     c_dur    rmse (X-CROSS)     
------ ------------------------------- ------------------------- ------------------------- -------- -------- ------------------ 
0      serving_default_input_layer0    |                  0.3%   |                  0.0%   [0]        0.2%                      
1      conv2d_1                        ||||||||          24.1%   |                  0.3%   [1]       23.4%                      
2      pool_2                          |                  0.9%   |                  0.0%   [2]        1.6%                      
3      conv2d_3                        ||||||||||||||||  48.3%   |                  2.5%   [3, 4]    47.2%                      
4      pool_4                          |                  0.3%   |                  0.0%   [5]        0.6%                      
5      conv2d_5                        ||||||||          24.1%   |                  4.9%   [6, 7]    24.9%                      
6      pool_6                          |                  0.1%   |                  0.0%   [8]        0.2%                      
11     sequential_1_dense_1_MatMul     |                  1.8%   ||||||||||||||||  92.0%   [9]        1.9%                      
12     sequential_1_dense_1_2_MatMul   |                  0.0%   |                  0.2%   [10]       0.0%                      
13     nl_13                           |                  0.0%   |                  0.0%   [11]       0.0%                      
14     conversion_14                   |                  0.0%   |                  0.0%   [12]       0.0%   0.00000000e+00 *   
------ ------------------------------- ------------------------- ------------------------- -------- -------- ------------------ 
macc=7,332,386 weights=142,756 act=85,056 ram_io=0

Evaluation report (summary)
---------------------------------------------------------------------------------------------------------------------------------------------------------------
Output       acc       rmse          mae           l2r           mean       std        snr   nse        cos        tensor                                      
---------------------------------------------------------------------------------------------------------------------------------------------------------------
X-cross #1   100.00%   0.000000000   0.000000000   0.000000000   0.000000   0.000000   inf   1.000000   1.000000   'conversion_14', 10 x f32(1x5), m_id=[14]   
---------------------------------------------------------------------------------------------------------------------------------------------------------------

 acc  : Accuracy (class, axis=-1)
 rmse : Root Mean Squared Error
 mae  : Mean Absolute Error
 l2r  : L2 relative error
 mean : Mean error
 std  : Standard deviation error
 snr  : Signal-to-Noise Ratio (SNR), bigger is better
 nse  : Nash-Sutcliffe efficiency criteria, bigger is better, best=1, range=(-inf, 1]
 cos  : COsine Similarity, bigger is better, best=1, range=(0, 1]
